#loc = loc("/workspace/projects/tritonbench/tritonbench/operators/gdpa/gdpa.py":1524:0)
#loc215 = loc("Q"(#loc))
#loc216 = loc("Q_offsets"(#loc))
#loc217 = loc("K"(#loc))
#loc218 = loc("K_offsets"(#loc))
#loc219 = loc("V"(#loc))
#loc220 = loc("DO"(#loc))
#loc221 = loc("Out_offsets"(#loc))
#loc222 = loc("DQ"(#loc))
#loc223 = loc("DK"(#loc))
#loc224 = loc("DV"(#loc))
#loc225 = loc("stride_qm"(#loc))
#loc226 = loc("stride_km"(#loc))
#loc227 = loc("stride_qh"(#loc))
#loc228 = loc("stride_kh"(#loc))
#loc229 = loc("stride_dom"(#loc))
#loc230 = loc("stride_doh"(#loc))
#loc231 = loc("Z"(#loc))
#loc232 = loc("H"(#loc))
#loc233 = loc("N_CTX"(#loc))
#loc234 = loc("N_CTX_KV"(#loc))
#loc235 = loc("qk_scale"(#loc))
module {
  tt.func public @_gdpa_bwd(%Q: !tt.ptr<bf16> {tt.divisibility = 16 : i32, tt.pointer_range = 32 : i32} loc("Q"(#loc)), %Q_offsets: !tt.ptr<i32> {tt.divisibility = 16 : i32, tt.pointer_range = 32 : i32} loc("Q_offsets"(#loc)), %K: !tt.ptr<bf16> {tt.divisibility = 16 : i32, tt.pointer_range = 32 : i32} loc("K"(#loc)), %K_offsets: !tt.ptr<i32> {tt.divisibility = 16 : i32, tt.pointer_range = 32 : i32} loc("K_offsets"(#loc)), %V: !tt.ptr<bf16> {tt.divisibility = 16 : i32, tt.pointer_range = 32 : i32} loc("V"(#loc)), %DO: !tt.ptr<bf16> {tt.divisibility = 16 : i32, tt.pointer_range = 32 : i32} loc("DO"(#loc)), %Out_offsets: !tt.ptr<i32> {tt.divisibility = 16 : i32, tt.pointer_range = 32 : i32} loc("Out_offsets"(#loc)), %DQ: !tt.ptr<bf16> {tt.divisibility = 16 : i32, tt.pointer_range = 32 : i32} loc("DQ"(#loc)), %DK: !tt.ptr<bf16> {tt.divisibility = 16 : i32, tt.pointer_range = 32 : i32} loc("DK"(#loc)), %DV: !tt.ptr<bf16> {tt.divisibility = 16 : i32, tt.pointer_range = 32 : i32} loc("DV"(#loc)), %stride_qm: i32 {tt.divisibility = 16 : i32} loc("stride_qm"(#loc)), %stride_km: i32 {tt.divisibility = 16 : i32} loc("stride_km"(#loc)), %stride_qh: i32 {tt.divisibility = 16 : i32} loc("stride_qh"(#loc)), %stride_kh: i32 {tt.divisibility = 16 : i32} loc("stride_kh"(#loc)), %stride_dom: i32 {tt.divisibility = 16 : i32} loc("stride_dom"(#loc)), %stride_doh: i32 {tt.divisibility = 16 : i32} loc("stride_doh"(#loc)), %Z: i32 {tt.divisibility = 16 : i32} loc("Z"(#loc)), %H: i32 loc("H"(#loc)), %N_CTX: i32 {tt.divisibility = 16 : i32} loc("N_CTX"(#loc)), %N_CTX_KV: i32 {tt.divisibility = 16 : i32} loc("N_CTX_KV"(#loc)), %qk_scale: f32 loc("qk_scale"(#loc))) attributes {noinline = false} {
    %c1_i32 = arith.constant 1 : i32 loc(#loc236)
    %c128_i32 = arith.constant 128 : i32 loc(#loc236)
    %cst = arith.constant dense<64> : tensor<1x64xi32> loc(#loc236)
    %cst_0 = arith.constant dense<0.000000e+00> : tensor<128x64xf32> loc(#loc236)
    %c32_i32 = arith.constant 32 : i32 loc(#loc236)
    %c31_i32 = arith.constant 31 : i32 loc(#loc236)
    %cst_1 = arith.constant dense<2.000000e+00> : tensor<128x32xf32> loc(#loc236)
    %cst_2 = arith.constant dense<0.107032225> : tensor<128x32xf32> loc(#loc236)
    %cst_3 = arith.constant dense<5.000000e-01> : tensor<128x32xf32> loc(#loc236)
    %cst_4 = arith.constant dense<1.000000e+00> : tensor<128x32xf32> loc(#loc236)
    %cst_5 = arith.constant dense<4.471500e-02> : tensor<128x32xf32> loc(#loc236)
    %cst_6 = arith.constant dense<0.797884583> : tensor<128x32xf32> loc(#loc236)
    %cst_7 = arith.constant dense<0.000000e+00> : tensor<128x32xf32> loc(#loc236)
    %cst_8 = arith.constant dense<64> : tensor<64x1xi32> loc(#loc236)
    %true = arith.constant true loc(#loc3)
    %c0_i32 = arith.constant 0 : i32 loc(#loc1)
    %0 = arith.cmpi sge, %stride_qm, %c0_i32 : i32 loc(#loc4)
    llvm.intr.assume %0 : i1 loc(#loc5)
    %1 = arith.cmpi sge, %stride_km, %c0_i32 : i32 loc(#loc6)
    llvm.intr.assume %1 : i1 loc(#loc7)
    %2 = arith.cmpi sge, %stride_qh, %c0_i32 : i32 loc(#loc8)
    llvm.intr.assume %2 : i1 loc(#loc9)
    %3 = arith.cmpi sge, %stride_kh, %c0_i32 : i32 loc(#loc10)
    llvm.intr.assume %3 : i1 loc(#loc11)
    llvm.intr.assume %true : i1 loc(#loc3)
    %4 = arith.cmpi sge, %stride_dom, %c0_i32 : i32 loc(#loc12)
    llvm.intr.assume %4 : i1 loc(#loc13)
    %5 = arith.cmpi sge, %stride_doh, %c0_i32 : i32 loc(#loc14)
    llvm.intr.assume %5 : i1 loc(#loc15)
    %off_z = tt.get_program_id z : i32 loc(#loc237)
    %off_seq_h = tt.get_program_id x : i32 loc(#loc238)
    %off_h = arith.remsi %off_seq_h, %H : i32 loc(#loc239)
    %pid = arith.divsi %off_seq_h, %H : i32 loc(#loc240)
    %begin_q = tt.addptr %Q_offsets, %off_z : !tt.ptr<i32>, i32 loc(#loc411)
    %begin_q_9 = tt.load %begin_q : !tt.ptr<i32> loc(#loc412)
    %end_q = tt.addptr %begin_q, %c1_i32 : !tt.ptr<i32>, i32 loc(#loc413)
    %end_q_10 = tt.load %end_q : !tt.ptr<i32> loc(#loc414)
    %qlen = arith.subi %end_q_10, %begin_q_9 : i32 loc(#loc415)
    %begin_k = tt.addptr %K_offsets, %off_z : !tt.ptr<i32>, i32 loc(#loc416)
    %begin_k_11 = tt.load %begin_k : !tt.ptr<i32> loc(#loc417)
    %end_k = tt.addptr %begin_k, %c1_i32 : !tt.ptr<i32>, i32 loc(#loc418)
    %end_k_12 = tt.load %end_k : !tt.ptr<i32> loc(#loc419)
    %klen = arith.subi %end_k_12, %begin_k_11 : i32 loc(#loc420)
    %start_n = arith.muli %pid, %c128_i32 : i32 loc(#loc421)
    %offs_k = tt.make_range {end = 64 : i32, start = 0 : i32} : tensor<64xi32> loc(#loc422)
    %6 = arith.cmpi sle, %start_n, %klen : i32 loc(#loc253)
    %7 = arith.cmpi sle, %start_n, %qlen : i32 loc(#loc254)
    %8 = arith.ori %6, %7 : i1 loc(#loc255)
    %9:7 = scf.if %8 -> (!tt.ptr<bf16>, !tt.ptr<bf16>, !tt.ptr<bf16>, !tt.ptr<bf16>, !tt.ptr<bf16>, !tt.ptr<bf16>, !tt.ptr<bf16>) {
      %begin_o = tt.addptr %Out_offsets, %off_z : !tt.ptr<i32>, i32 loc(#loc423)
      %begin_o_13 = tt.load %begin_o : !tt.ptr<i32> loc(#loc424)
      %off_h2 = arith.extsi %off_h : i32 to i64 loc(#loc425)
      %qadj = arith.extsi %stride_qh : i32 to i64 loc(#loc426)
      %qadj_14 = arith.muli %off_h2, %qadj : i64 loc(#loc426)
      %qadj_15 = arith.muli %begin_q_9, %stride_qm : i32 loc(#loc427)
      %qadj_16 = arith.extsi %qadj_15 : i32 to i64 loc(#loc428)
      %qadj_17 = arith.addi %qadj_14, %qadj_16 : i64 loc(#loc428)
      %kadj = arith.muli %off_h, %stride_kh : i32 loc(#loc429)
      %kadj_18 = arith.muli %begin_k_11, %stride_km : i32 loc(#loc430)
      %kadj_19 = arith.addi %kadj, %kadj_18 : i32 loc(#loc431)
      %doadj = arith.extsi %stride_doh : i32 to i64 loc(#loc432)
      %doadj_20 = arith.muli %off_h2, %doadj : i64 loc(#loc432)
      %doadj_21 = arith.muli %begin_o_13, %stride_dom : i32 loc(#loc433)
      %doadj_22 = arith.extsi %doadj_21 : i32 to i64 loc(#loc434)
      %doadj_23 = arith.addi %doadj_20, %doadj_22 : i64 loc(#loc434)
      %Q_24 = tt.addptr %Q, %qadj_17 : !tt.ptr<bf16>, i64 loc(#loc537)
      %K_25 = tt.addptr %K, %kadj_19 : !tt.ptr<bf16>, i32 loc(#loc538)
      %V_26 = tt.addptr %V, %kadj_19 : !tt.ptr<bf16>, i32 loc(#loc539)
      %DO_27 = tt.addptr %DO, %doadj_23 : !tt.ptr<bf16>, i64 loc(#loc540)
      %DQ_28 = tt.addptr %DQ, %qadj_17 : !tt.ptr<bf16>, i64 loc(#loc541)
      %DK_29 = tt.addptr %DK, %kadj_19 : !tt.ptr<bf16>, i32 loc(#loc542)
      %DV_30 = tt.addptr %DV, %kadj_19 : !tt.ptr<bf16>, i32 loc(#loc543)
      scf.yield %Q_24, %K_25, %V_26, %DO_27, %DQ_28, %DK_29, %DV_30 : !tt.ptr<bf16>, !tt.ptr<bf16>, !tt.ptr<bf16>, !tt.ptr<bf16>, !tt.ptr<bf16>, !tt.ptr<bf16>, !tt.ptr<bf16> loc(#loc543)
    } else {
      scf.yield %Q, %K, %V, %DO, %DQ, %DK, %DV : !tt.ptr<bf16>, !tt.ptr<bf16>, !tt.ptr<bf16>, !tt.ptr<bf16>, !tt.ptr<bf16>, !tt.ptr<bf16>, !tt.ptr<bf16> loc(#loc236)
    } loc(#loc256)
    %10 = arith.cmpi slt, %start_n, %klen : i32 loc(#loc276)
    scf.if %10 {
      %offs_n = tt.make_range {end = 128 : i32, start = 0 : i32} : tensor<128xi32> loc(#loc442)
      %offs_n_13 = tt.splat %start_n : i32 -> tensor<128xi32> loc(#loc443)
      %offs_n_14 = arith.addi %offs_n_13, %offs_n : tensor<128xi32> loc(#loc443)
      %kmask = tt.expand_dims %offs_k {axis = 0 : i32} : tensor<64xi32> -> tensor<1x64xi32> loc(#loc444)
      %kmask_15 = arith.cmpi slt, %kmask, %cst : tensor<1x64xi32> loc(#loc445)
      %kmask_16 = tt.expand_dims %offs_n_14 {axis = 1 : i32} : tensor<128xi32> -> tensor<128x1xi32> loc(#loc446)
      %kmask_17 = tt.splat %klen : i32 -> tensor<128x1xi32> loc(#loc447)
      %kmask_18 = arith.cmpi slt, %kmask_16, %kmask_17 : tensor<128x1xi32> loc(#loc447)
      %kmask_19 = tt.broadcast %kmask_15 : tensor<1x64xi1> -> tensor<128x64xi1> loc(#loc448)
      %kmask_20 = tt.broadcast %kmask_18 : tensor<128x1xi1> -> tensor<128x64xi1> loc(#loc448)
      %kmask_21 = arith.andi %kmask_19, %kmask_20 : tensor<128x64xi1> loc(#loc448)
      %k = tt.splat %stride_km : i32 -> tensor<128x1xi32> loc(#loc449)
      %k_22 = arith.muli %kmask_16, %k : tensor<128x1xi32> loc(#loc449)
      %k_23 = tt.splat %9#1 : !tt.ptr<bf16> -> tensor<128x1x!tt.ptr<bf16>> loc(#loc450)
      %k_24 = tt.addptr %k_23, %k_22 : tensor<128x1x!tt.ptr<bf16>>, tensor<128x1xi32> loc(#loc450)
      %k_25 = tt.broadcast %k_24 : tensor<128x1x!tt.ptr<bf16>> -> tensor<128x64x!tt.ptr<bf16>> loc(#loc451)
      %k_26 = tt.broadcast %kmask : tensor<1x64xi32> -> tensor<128x64xi32> loc(#loc451)
      %k_27 = tt.addptr %k_25, %k_26 : tensor<128x64x!tt.ptr<bf16>>, tensor<128x64xi32> loc(#loc451)
      %k_28 = tt.load %k_27, %kmask_21 : tensor<128x64x!tt.ptr<bf16>> loc(#loc452)
      %v = tt.splat %9#2 : !tt.ptr<bf16> -> tensor<128x1x!tt.ptr<bf16>> loc(#loc453)
      %v_29 = tt.addptr %v, %k_22 : tensor<128x1x!tt.ptr<bf16>>, tensor<128x1xi32> loc(#loc453)
      %v_30 = tt.broadcast %v_29 : tensor<128x1x!tt.ptr<bf16>> -> tensor<128x64x!tt.ptr<bf16>> loc(#loc454)
      %v_31 = tt.addptr %v_30, %k_26 : tensor<128x64x!tt.ptr<bf16>>, tensor<128x64xi32> loc(#loc454)
      %v_32 = tt.load %v_31, %kmask_21 : tensor<128x64x!tt.ptr<bf16>> loc(#loc455)
      %num_steps = arith.addi %qlen, %c31_i32 : i32 loc(#loc544)
      %num_steps_33 = arith.divsi %num_steps, %c32_i32 : i32 loc(#loc545)
      %offs_m = tt.make_range {end = 32 : i32, start = 0 : i32} : tensor<32xi32> loc(#loc457)
      %qT_ptrs = tt.expand_dims %offs_m {axis = 0 : i32} : tensor<32xi32> -> tensor<1x32xi32> loc(#loc458)
      %qT_ptrs_34 = tt.splat %stride_qm : i32 -> tensor<1x32xi32> loc(#loc459)
      %qT_ptrs_35 = arith.muli %qT_ptrs, %qT_ptrs_34 : tensor<1x32xi32> loc(#loc459)
      %qT_ptrs_36 = tt.splat %9#0 : !tt.ptr<bf16> -> tensor<1x32x!tt.ptr<bf16>> loc(#loc460)
      %qT_ptrs_37 = tt.addptr %qT_ptrs_36, %qT_ptrs_35 : tensor<1x32x!tt.ptr<bf16>>, tensor<1x32xi32> loc(#loc460)
      %qT_ptrs_38 = tt.expand_dims %offs_k {axis = 1 : i32} : tensor<64xi32> -> tensor<64x1xi32> loc(#loc461)
      %qT_ptrs_39 = tt.broadcast %qT_ptrs_37 : tensor<1x32x!tt.ptr<bf16>> -> tensor<64x32x!tt.ptr<bf16>> loc(#loc462)
      %qT_ptrs_40 = tt.broadcast %qT_ptrs_38 : tensor<64x1xi32> -> tensor<64x32xi32> loc(#loc462)
      %qT_ptrs_41 = tt.addptr %qT_ptrs_39, %qT_ptrs_40 : tensor<64x32x!tt.ptr<bf16>>, tensor<64x32xi32> loc(#loc462)
      %do_ptrs = tt.expand_dims %offs_m {axis = 1 : i32} : tensor<32xi32> -> tensor<32x1xi32> loc(#loc463)
      %do_ptrs_42 = tt.splat %stride_dom : i32 -> tensor<32x1xi32> loc(#loc464)
      %do_ptrs_43 = arith.muli %do_ptrs, %do_ptrs_42 : tensor<32x1xi32> loc(#loc464)
      %do_ptrs_44 = tt.splat %9#3 : !tt.ptr<bf16> -> tensor<32x1x!tt.ptr<bf16>> loc(#loc465)
      %do_ptrs_45 = tt.addptr %do_ptrs_44, %do_ptrs_43 : tensor<32x1x!tt.ptr<bf16>>, tensor<32x1xi32> loc(#loc465)
      %do_ptrs_46 = tt.broadcast %do_ptrs_45 : tensor<32x1x!tt.ptr<bf16>> -> tensor<32x64x!tt.ptr<bf16>> loc(#loc466)
      %do_ptrs_47 = tt.broadcast %kmask : tensor<1x64xi32> -> tensor<32x64xi32> loc(#loc466)
      %do_ptrs_48 = tt.addptr %do_ptrs_46, %do_ptrs_47 : tensor<32x64x!tt.ptr<bf16>>, tensor<32x64xi32> loc(#loc466)
      %qmask = arith.cmpi slt, %qT_ptrs_38, %cst_8 : tensor<64x1xi32> loc(#loc467)
      %qmask_49 = tt.splat %qlen : i32 -> tensor<1x32xi32> loc(#loc468)
      %qmask_50 = tt.broadcast %qmask : tensor<64x1xi1> -> tensor<64x32xi1> loc(#loc469)
      %omask = tt.splat %qlen : i32 -> tensor<32x1xi32> loc(#loc470)
      %omask_51 = tt.broadcast %kmask_15 : tensor<1x64xi1> -> tensor<32x64xi1> loc(#loc471)
      %ppT = tt.splat %qk_scale : f32 -> tensor<128x32xf32> loc(#loc472)
      %qT_ptrs_52 = arith.muli %stride_qm, %c32_i32 : i32 loc(#loc473)
      %qT_ptrs_53 = tt.splat %qT_ptrs_52 : i32 -> tensor<64x32xi32> loc(#loc474)
      %do_ptrs_54 = arith.muli %stride_dom, %c32_i32 : i32 loc(#loc475)
      %do_ptrs_55 = tt.splat %do_ptrs_54 : i32 -> tensor<32x64xi32> loc(#loc476)
      %curr_m:5 = scf.for %curr_m_62 = %c0_i32 to %num_steps_33 step %c1_i32 iter_args(%dk = %cst_0, %dv = %cst_0, %qT_ptrs_63 = %qT_ptrs_41, %do_ptrs_64 = %do_ptrs_48, %start_m = %c0_i32) -> (tensor<128x64xf32>, tensor<128x64xf32>, tensor<64x32x!tt.ptr<bf16>>, tensor<32x64x!tt.ptr<bf16>>, i32)  : i32 {
        %offs_m_65 = tt.splat %start_m : i32 -> tensor<32xi32> loc(#loc478)
        %offs_m_66 = arith.addi %offs_m_65, %offs_m : tensor<32xi32> loc(#loc478)
        %qmask_67 = tt.expand_dims %offs_m_66 {axis = 0 : i32} : tensor<32xi32> -> tensor<1x32xi32> loc(#loc479)
        %qmask_68 = arith.cmpi slt, %qmask_67, %qmask_49 : tensor<1x32xi32> loc(#loc468)
        %qmask_69 = tt.broadcast %qmask_68 : tensor<1x32xi1> -> tensor<64x32xi1> loc(#loc469)
        %qmask_70 = arith.andi %qmask_50, %qmask_69 : tensor<64x32xi1> loc(#loc469)
        %qT = tt.load %qT_ptrs_63, %qmask_70 : tensor<64x32x!tt.ptr<bf16>> loc(#loc480)
        %qkT = tt.dot %k_28, %qT, %cst_7 : tensor<128x64xbf16> * tensor<64x32xbf16> -> tensor<128x32xf32> loc(#loc481)
        %omask_71 = tt.expand_dims %offs_m_66 {axis = 1 : i32} : tensor<32xi32> -> tensor<32x1xi32> loc(#loc482)
        %omask_72 = arith.cmpi slt, %omask_71, %omask : tensor<32x1xi32> loc(#loc470)
        %omask_73 = tt.broadcast %omask_72 : tensor<32x1xi1> -> tensor<32x64xi1> loc(#loc471)
        %omask_74 = arith.andi %omask_73, %omask_51 : tensor<32x64xi1> loc(#loc471)
        %do = tt.load %do_ptrs_64, %omask_74 : tensor<32x64x!tt.ptr<bf16>> loc(#loc483)
        %dpT = tt.trans %do {order = array<i32: 1, 0>} : tensor<32x64xbf16> -> tensor<64x32xbf16> loc(#loc484)
        %dpT_75 = tt.dot %v_32, %dpT, %cst_7 : tensor<128x64xbf16> * tensor<64x32xbf16> -> tensor<128x32xf32> loc(#loc485)
        %tanh_out = arith.mulf %qkT, %cst_6 : tensor<128x32xf32> loc(#loc486)
        %tanh_out_76 = arith.mulf %qkT, %cst_5 : tensor<128x32xf32> loc(#loc487)
        %tanh_out_77 = arith.mulf %tanh_out_76, %qkT : tensor<128x32xf32> loc(#loc488)
        %tanh_out_78 = arith.addf %tanh_out_77, %cst_4 : tensor<128x32xf32> loc(#loc489)
        %tanh_out_79 = arith.mulf %tanh_out, %tanh_out_78 : tensor<128x32xf32> loc(#loc490)
        %tanh_out_80 = arith.mulf %tanh_out_79, %cst_1 : tensor<128x32xf32> loc(#loc580)
        %tanh_out_81 = arith.subf %cst_7, %tanh_out_80 : tensor<128x32xf32> loc(#loc603)
        %tanh_out_82 = math.exp %tanh_out_81 : tensor<128x32xf32> loc(#loc604)
        %tanh_out_83 = arith.addf %tanh_out_82, %cst_4 : tensor<128x32xf32> loc(#loc605)
        %tanh_out_84 = arith.divf %cst_4, %tanh_out_83 : tensor<128x32xf32> loc(#loc606)
        %tanh_out_85 = arith.mulf %tanh_out_84, %cst_1 : tensor<128x32xf32> loc(#loc582)
        %tanh_out_86 = arith.subf %tanh_out_85, %cst_4 : tensor<128x32xf32> loc(#loc583)
        %ppT_87 = arith.mulf %qkT, %cst_3 : tensor<128x32xf32> loc(#loc492)
        %ppT_88 = arith.addf %tanh_out_86, %cst_4 : tensor<128x32xf32> loc(#loc493)
        %ppT_89 = arith.mulf %ppT_87, %ppT_88 : tensor<128x32xf32> loc(#loc494)
        %ppT_90 = arith.mulf %ppT_89, %ppT : tensor<128x32xf32> loc(#loc472)
        %ppT_91 = arith.truncf %ppT_90 : tensor<128x32xf32> to tensor<128x32xbf16> loc(#loc495)
        %dv_92 = tt.dot %ppT_91, %do, %dv : tensor<128x32xbf16> * tensor<32x64xbf16> -> tensor<128x64xf32> loc(#loc496)
        %pT = arith.mulf %tanh_out_86, %tanh_out_86 : tensor<128x32xf32> loc(#loc497)
        %pT_93 = arith.subf %cst_4, %pT : tensor<128x32xf32> loc(#loc498)
        %pT_94 = arith.mulf %ppT_87, %pT_93 : tensor<128x32xf32> loc(#loc499)
        %pT_95 = arith.mulf %qkT, %cst_2 : tensor<128x32xf32> loc(#loc500)
        %pT_96 = arith.mulf %pT_95, %qkT : tensor<128x32xf32> loc(#loc501)
        %pT_97 = arith.addf %pT_96, %cst_6 : tensor<128x32xf32> loc(#loc502)
        %pT_98 = arith.mulf %pT_94, %pT_97 : tensor<128x32xf32> loc(#loc503)
        %pT_99 = arith.mulf %ppT_88, %cst_3 : tensor<128x32xf32> loc(#loc504)
        %pT_100 = arith.addf %pT_98, %pT_99 : tensor<128x32xf32> loc(#loc505)
        %pT_101 = arith.mulf %pT_100, %ppT : tensor<128x32xf32> loc(#loc506)
        %dsT = arith.mulf %pT_101, %dpT_75 : tensor<128x32xf32> loc(#loc507)
        %dsT_102 = arith.truncf %dsT : tensor<128x32xf32> to tensor<128x32xbf16> loc(#loc508)
        %dk_103 = tt.trans %qT {order = array<i32: 1, 0>} : tensor<64x32xbf16> -> tensor<32x64xbf16> loc(#loc509)
        %dk_104 = tt.dot %dsT_102, %dk_103, %dk : tensor<128x32xbf16> * tensor<32x64xbf16> -> tensor<128x64xf32> loc(#loc510)
        %curr_m_105 = arith.addi %start_m, %c32_i32 : i32 loc(#loc511)
        %qT_ptrs_106 = tt.addptr %qT_ptrs_63, %qT_ptrs_53 : tensor<64x32x!tt.ptr<bf16>>, tensor<64x32xi32> loc(#loc474)
        %do_ptrs_107 = tt.addptr %do_ptrs_64, %do_ptrs_55 : tensor<32x64x!tt.ptr<bf16>>, tensor<32x64xi32> loc(#loc476)
        scf.yield %dk_104, %dv_92, %qT_ptrs_106, %do_ptrs_107, %curr_m_105 : tensor<128x64xf32>, tensor<128x64xf32>, tensor<64x32x!tt.ptr<bf16>>, tensor<32x64x!tt.ptr<bf16>>, i32 loc(#loc512)
      } {tt.loop_unroll_factor = 1 : i32} loc(#loc615)
      %dv_ptrs = tt.splat %9#6 : !tt.ptr<bf16> -> tensor<128x1x!tt.ptr<bf16>> loc(#loc513)
      %dv_ptrs_56 = tt.addptr %dv_ptrs, %k_22 : tensor<128x1x!tt.ptr<bf16>>, tensor<128x1xi32> loc(#loc513)
      %dv_ptrs_57 = tt.broadcast %dv_ptrs_56 : tensor<128x1x!tt.ptr<bf16>> -> tensor<128x64x!tt.ptr<bf16>> loc(#loc514)
      %dv_ptrs_58 = tt.addptr %dv_ptrs_57, %k_26 : tensor<128x64x!tt.ptr<bf16>>, tensor<128x64xi32> loc(#loc514)
      %12 = arith.truncf %curr_m#1 : tensor<128x64xf32> to tensor<128x64xbf16> loc(#loc351)
      tt.store %dv_ptrs_58, %12, %kmask_21 : tensor<128x64x!tt.ptr<bf16>> loc(#loc351)
      %dk_ptrs = tt.splat %9#5 : !tt.ptr<bf16> -> tensor<128x1x!tt.ptr<bf16>> loc(#loc515)
      %dk_ptrs_59 = tt.addptr %dk_ptrs, %k_22 : tensor<128x1x!tt.ptr<bf16>>, tensor<128x1xi32> loc(#loc515)
      %dk_ptrs_60 = tt.broadcast %dk_ptrs_59 : tensor<128x1x!tt.ptr<bf16>> -> tensor<128x64x!tt.ptr<bf16>> loc(#loc516)
      %dk_ptrs_61 = tt.addptr %dk_ptrs_60, %k_26 : tensor<128x64x!tt.ptr<bf16>>, tensor<128x64xi32> loc(#loc516)
      %13 = arith.truncf %curr_m#0 : tensor<128x64xf32> to tensor<128x64xbf16> loc(#loc354)
      tt.store %dk_ptrs_61, %13, %kmask_21 : tensor<128x64x!tt.ptr<bf16>> loc(#loc354)
    } loc(#loc277)
    %11 = arith.cmpi slt, %start_n, %qlen : i32 loc(#loc355)
    scf.if %11 {
      %offs_m = tt.make_range {end = 128 : i32, start = 0 : i32} : tensor<128xi32> loc(#loc517)
      %offs_m_13 = tt.splat %start_n : i32 -> tensor<128xi32> loc(#loc518)
      %offs_m_14 = arith.addi %offs_m_13, %offs_m : tensor<128xi32> loc(#loc518)
      %qmask = tt.expand_dims %offs_k {axis = 0 : i32} : tensor<64xi32> -> tensor<1x64xi32> loc(#loc519)
      %qmask_15 = arith.cmpi slt, %qmask, %cst : tensor<1x64xi32> loc(#loc520)
      %qmask_16 = tt.expand_dims %offs_m_14 {axis = 1 : i32} : tensor<128xi32> -> tensor<128x1xi32> loc(#loc521)
      %qmask_17 = tt.splat %qlen : i32 -> tensor<128x1xi32> loc(#loc522)
      %qmask_18 = arith.cmpi slt, %qmask_16, %qmask_17 : tensor<128x1xi32> loc(#loc522)
      %qmask_19 = tt.broadcast %qmask_15 : tensor<1x64xi1> -> tensor<128x64xi1> loc(#loc523)
      %qmask_20 = tt.broadcast %qmask_18 : tensor<128x1xi1> -> tensor<128x64xi1> loc(#loc523)
      %qmask_21 = arith.andi %qmask_19, %qmask_20 : tensor<128x64xi1> loc(#loc523)
      %q = tt.splat %stride_qm : i32 -> tensor<128x1xi32> loc(#loc524)
      %q_22 = arith.muli %qmask_16, %q : tensor<128x1xi32> loc(#loc524)
      %q_23 = tt.splat %9#0 : !tt.ptr<bf16> -> tensor<128x1x!tt.ptr<bf16>> loc(#loc525)
      %q_24 = tt.addptr %q_23, %q_22 : tensor<128x1x!tt.ptr<bf16>>, tensor<128x1xi32> loc(#loc525)
      %q_25 = tt.broadcast %q_24 : tensor<128x1x!tt.ptr<bf16>> -> tensor<128x64x!tt.ptr<bf16>> loc(#loc526)
      %q_26 = tt.broadcast %qmask : tensor<1x64xi32> -> tensor<128x64xi32> loc(#loc526)
      %q_27 = tt.addptr %q_25, %q_26 : tensor<128x64x!tt.ptr<bf16>>, tensor<128x64xi32> loc(#loc526)
      %q_28 = tt.load %q_27, %qmask_21 : tensor<128x64x!tt.ptr<bf16>> loc(#loc527)
      %do = tt.splat %stride_dom : i32 -> tensor<128x1xi32> loc(#loc528)
      %do_29 = arith.muli %qmask_16, %do : tensor<128x1xi32> loc(#loc528)
      %do_30 = tt.splat %9#3 : !tt.ptr<bf16> -> tensor<128x1x!tt.ptr<bf16>> loc(#loc529)
      %do_31 = tt.addptr %do_30, %do_29 : tensor<128x1x!tt.ptr<bf16>>, tensor<128x1xi32> loc(#loc529)
      %do_32 = tt.broadcast %do_31 : tensor<128x1x!tt.ptr<bf16>> -> tensor<128x64x!tt.ptr<bf16>> loc(#loc530)
      %do_33 = tt.addptr %do_32, %q_26 : tensor<128x64x!tt.ptr<bf16>>, tensor<128x64xi32> loc(#loc530)
      %do_34 = tt.load %do_33, %qmask_21 : tensor<128x64x!tt.ptr<bf16>> loc(#loc531)
      %num_steps = arith.addi %klen, %c31_i32 : i32 loc(#loc548)
      %num_steps_35 = arith.divsi %num_steps, %c32_i32 : i32 loc(#loc549)
      %offs_n = tt.make_range {end = 32 : i32, start = 0 : i32} : tensor<32xi32> loc(#loc550)
      %kT_ptrs = tt.expand_dims %offs_n {axis = 0 : i32} : tensor<32xi32> -> tensor<1x32xi32> loc(#loc551)
      %kT_ptrs_36 = tt.splat %stride_km : i32 -> tensor<1x32xi32> loc(#loc552)
      %kT_ptrs_37 = arith.muli %kT_ptrs, %kT_ptrs_36 : tensor<1x32xi32> loc(#loc552)
      %kT_ptrs_38 = tt.splat %9#1 : !tt.ptr<bf16> -> tensor<1x32x!tt.ptr<bf16>> loc(#loc553)
      %kT_ptrs_39 = tt.addptr %kT_ptrs_38, %kT_ptrs_37 : tensor<1x32x!tt.ptr<bf16>>, tensor<1x32xi32> loc(#loc553)
      %kT_ptrs_40 = tt.expand_dims %offs_k {axis = 1 : i32} : tensor<64xi32> -> tensor<64x1xi32> loc(#loc554)
      %kT_ptrs_41 = tt.broadcast %kT_ptrs_39 : tensor<1x32x!tt.ptr<bf16>> -> tensor<64x32x!tt.ptr<bf16>> loc(#loc555)
      %kT_ptrs_42 = tt.broadcast %kT_ptrs_40 : tensor<64x1xi32> -> tensor<64x32xi32> loc(#loc555)
      %kT_ptrs_43 = tt.addptr %kT_ptrs_41, %kT_ptrs_42 : tensor<64x32x!tt.ptr<bf16>>, tensor<64x32xi32> loc(#loc555)
      %vT_ptrs = tt.splat %9#2 : !tt.ptr<bf16> -> tensor<1x32x!tt.ptr<bf16>> loc(#loc556)
      %vT_ptrs_44 = tt.addptr %vT_ptrs, %kT_ptrs_37 : tensor<1x32x!tt.ptr<bf16>>, tensor<1x32xi32> loc(#loc556)
      %vT_ptrs_45 = tt.broadcast %vT_ptrs_44 : tensor<1x32x!tt.ptr<bf16>> -> tensor<64x32x!tt.ptr<bf16>> loc(#loc557)
      %vT_ptrs_46 = tt.addptr %vT_ptrs_45, %kT_ptrs_42 : tensor<64x32x!tt.ptr<bf16>>, tensor<64x32xi32> loc(#loc557)
      %kmask = arith.cmpi slt, %kT_ptrs_40, %cst_8 : tensor<64x1xi32> loc(#loc558)
      %kmask_47 = tt.splat %klen : i32 -> tensor<1x32xi32> loc(#loc559)
      %kmask_48 = tt.broadcast %kmask : tensor<64x1xi1> -> tensor<64x32xi1> loc(#loc560)
      %p = tt.splat %qk_scale : f32 -> tensor<128x32xf32> loc(#loc561)
      %kT_ptrs_49 = arith.muli %stride_km, %c32_i32 : i32 loc(#loc562)
      %kT_ptrs_50 = tt.splat %kT_ptrs_49 : i32 -> tensor<64x32xi32> loc(#loc563)
      %curr_n:4 = scf.for %curr_n_54 = %c0_i32 to %num_steps_35 step %c1_i32 iter_args(%dq = %cst_0, %kT_ptrs_55 = %kT_ptrs_43, %vT_ptrs_56 = %vT_ptrs_46, %start_n_57 = %c0_i32) -> (tensor<128x64xf32>, tensor<64x32x!tt.ptr<bf16>>, tensor<64x32x!tt.ptr<bf16>>, i32)  : i32 {
        %offs_n_58 = tt.splat %start_n_57 : i32 -> tensor<32xi32> loc(#loc565)
        %offs_n_59 = arith.addi %offs_n_58, %offs_n : tensor<32xi32> loc(#loc565)
        %kmask_60 = tt.expand_dims %offs_n_59 {axis = 0 : i32} : tensor<32xi32> -> tensor<1x32xi32> loc(#loc566)
        %kmask_61 = arith.cmpi slt, %kmask_60, %kmask_47 : tensor<1x32xi32> loc(#loc559)
        %kmask_62 = tt.broadcast %kmask_61 : tensor<1x32xi1> -> tensor<64x32xi1> loc(#loc560)
        %kmask_63 = arith.andi %kmask_48, %kmask_62 : tensor<64x32xi1> loc(#loc560)
        %kT = tt.load %kT_ptrs_55, %kmask_63 : tensor<64x32x!tt.ptr<bf16>> loc(#loc567)
        %vT = tt.load %vT_ptrs_56, %kmask_63 : tensor<64x32x!tt.ptr<bf16>> loc(#loc568)
        %qk = tt.dot %q_28, %kT, %cst_7 : tensor<128x64xbf16> * tensor<64x32xbf16> -> tensor<128x32xf32> loc(#loc569)
        %tanh_out = arith.mulf %qk, %cst_6 : tensor<128x32xf32> loc(#loc585)
        %tanh_out_64 = arith.mulf %qk, %cst_5 : tensor<128x32xf32> loc(#loc586)
        %tanh_out_65 = arith.mulf %tanh_out_64, %qk : tensor<128x32xf32> loc(#loc587)
        %tanh_out_66 = arith.addf %tanh_out_65, %cst_4 : tensor<128x32xf32> loc(#loc588)
        %tanh_out_67 = arith.mulf %tanh_out, %tanh_out_66 : tensor<128x32xf32> loc(#loc589)
        %tanh_out_68 = arith.mulf %tanh_out_67, %cst_1 : tensor<128x32xf32> loc(#loc611)
        %tanh_out_69 = arith.subf %cst_7, %tanh_out_68 : tensor<128x32xf32> loc(#loc616)
        %tanh_out_70 = math.exp %tanh_out_69 : tensor<128x32xf32> loc(#loc617)
        %tanh_out_71 = arith.addf %tanh_out_70, %cst_4 : tensor<128x32xf32> loc(#loc618)
        %tanh_out_72 = arith.divf %cst_4, %tanh_out_71 : tensor<128x32xf32> loc(#loc619)
        %tanh_out_73 = arith.mulf %tanh_out_72, %cst_1 : tensor<128x32xf32> loc(#loc613)
        %tanh_out_74 = arith.subf %tanh_out_73, %cst_4 : tensor<128x32xf32> loc(#loc614)
        %p_75 = arith.mulf %qk, %cst_3 : tensor<128x32xf32> loc(#loc591)
        %p_76 = arith.mulf %tanh_out_74, %tanh_out_74 : tensor<128x32xf32> loc(#loc592)
        %p_77 = arith.subf %cst_4, %p_76 : tensor<128x32xf32> loc(#loc593)
        %p_78 = arith.mulf %qk, %cst_2 : tensor<128x32xf32> loc(#loc594)
        %p_79 = arith.mulf %p_78, %qk : tensor<128x32xf32> loc(#loc595)
        %p_80 = arith.addf %p_79, %cst_6 : tensor<128x32xf32> loc(#loc596)
        %p_81 = arith.mulf %p_77, %p_80 : tensor<128x32xf32> loc(#loc597)
        %p_82 = arith.mulf %p_75, %p_81 : tensor<128x32xf32> loc(#loc598)
        %p_83 = arith.addf %tanh_out_74, %cst_4 : tensor<128x32xf32> loc(#loc599)
        %p_84 = arith.mulf %p_83, %cst_3 : tensor<128x32xf32> loc(#loc600)
        %p_85 = arith.addf %p_82, %p_84 : tensor<128x32xf32> loc(#loc601)
        %p_86 = arith.mulf %p_85, %p : tensor<128x32xf32> loc(#loc561)
        %dp = tt.dot %do_34, %vT, %cst_7 : tensor<128x64xbf16> * tensor<64x32xbf16> -> tensor<128x32xf32> loc(#loc571)
        %ds = arith.mulf %p_86, %dp : tensor<128x32xf32> loc(#loc572)
        %ds_87 = arith.truncf %ds : tensor<128x32xf32> to tensor<128x32xbf16> loc(#loc573)
        %dq_88 = tt.trans %kT {order = array<i32: 1, 0>} : tensor<64x32xbf16> -> tensor<32x64xbf16> loc(#loc574)
        %dq_89 = tt.dot %ds_87, %dq_88, %dq : tensor<128x32xbf16> * tensor<32x64xbf16> -> tensor<128x64xf32> loc(#loc575)
        %curr_n_90 = arith.addi %start_n_57, %c32_i32 : i32 loc(#loc576)
        %kT_ptrs_91 = tt.addptr %kT_ptrs_55, %kT_ptrs_50 : tensor<64x32x!tt.ptr<bf16>>, tensor<64x32xi32> loc(#loc563)
        %vT_ptrs_92 = tt.addptr %vT_ptrs_56, %kT_ptrs_50 : tensor<64x32x!tt.ptr<bf16>>, tensor<64x32xi32> loc(#loc577)
        scf.yield %dq_89, %kT_ptrs_91, %vT_ptrs_92, %curr_n_90 : tensor<128x64xf32>, tensor<64x32x!tt.ptr<bf16>>, tensor<64x32x!tt.ptr<bf16>>, i32 loc(#loc578)
      } {tt.loop_unroll_factor = 1 : i32} loc(#loc610)
      %dq_ptrs = tt.splat %9#4 : !tt.ptr<bf16> -> tensor<128x1x!tt.ptr<bf16>> loc(#loc535)
      %dq_ptrs_51 = tt.addptr %dq_ptrs, %q_22 : tensor<128x1x!tt.ptr<bf16>>, tensor<128x1xi32> loc(#loc535)
      %dq_ptrs_52 = tt.broadcast %dq_ptrs_51 : tensor<128x1x!tt.ptr<bf16>> -> tensor<128x64x!tt.ptr<bf16>> loc(#loc536)
      %dq_ptrs_53 = tt.addptr %dq_ptrs_52, %q_26 : tensor<128x64x!tt.ptr<bf16>>, tensor<128x64xi32> loc(#loc536)
      %12 = arith.truncf %curr_n#0 : tensor<128x64xf32> to tensor<128x64xbf16> loc(#loc410)
      tt.store %dq_ptrs_53, %12, %qmask_21 : tensor<128x64x!tt.ptr<bf16>> loc(#loc410)
    } loc(#loc356)
    tt.return loc(#loc214)
  } loc(#loc)
} loc(#loc)
#loc1 = loc(unknown)
#loc2 = loc("/workspace/projects/tritonbench/tritonbench/operators/gdpa/gdpa.py":1645:8)
#loc3 = loc("/workspace/projects/tritonbench/tritonbench/operators/gdpa/gdpa.py":1572:14)
#loc4 = loc("/workspace/projects/tritonbench/tritonbench/operators/gdpa/gdpa.py":1568:27)
#loc5 = loc("/workspace/projects/tritonbench/tritonbench/operators/gdpa/gdpa.py":1568:14)
#loc6 = loc("/workspace/projects/tritonbench/tritonbench/operators/gdpa/gdpa.py":1569:27)
#loc7 = loc("/workspace/projects/tritonbench/tritonbench/operators/gdpa/gdpa.py":1569:14)
#loc8 = loc("/workspace/projects/tritonbench/tritonbench/operators/gdpa/gdpa.py":1570:27)
#loc9 = loc("/workspace/projects/tritonbench/tritonbench/operators/gdpa/gdpa.py":1570:14)
#loc10 = loc("/workspace/projects/tritonbench/tritonbench/operators/gdpa/gdpa.py":1571:27)
#loc11 = loc("/workspace/projects/tritonbench/tritonbench/operators/gdpa/gdpa.py":1571:14)
#loc12 = loc("/workspace/projects/tritonbench/tritonbench/operators/gdpa/gdpa.py":1573:28)
#loc13 = loc("/workspace/projects/tritonbench/tritonbench/operators/gdpa/gdpa.py":1573:14)
#loc14 = loc("/workspace/projects/tritonbench/tritonbench/operators/gdpa/gdpa.py":1574:28)
#loc15 = loc("/workspace/projects/tritonbench/tritonbench/operators/gdpa/gdpa.py":1574:14)
#loc16 = loc("/workspace/projects/tritonbench/tritonbench/operators/gdpa/gdpa.py":1579:30)
#loc17 = loc("/workspace/projects/tritonbench/tritonbench/operators/gdpa/gdpa.py":1587:30)
#loc18 = loc("/workspace/projects/tritonbench/tritonbench/operators/gdpa/gdpa.py":1588:24)
#loc19 = loc("/workspace/projects/tritonbench/tritonbench/operators/gdpa/gdpa.py":1590:23)
#loc20 = loc("/workspace/projects/tritonbench/tritonbench/operators/gdpa/gdpa.py":1162:34)
#loc21 = loc("/workspace/projects/tritonbench/tritonbench/operators/gdpa/gdpa.py":1162:22)
#loc22 = loc("/workspace/projects/tritonbench/tritonbench/operators/gdpa/gdpa.py":1163:42)
#loc23 = loc("/workspace/projects/tritonbench/tritonbench/operators/gdpa/gdpa.py":1163:20)
#loc24 = loc("/workspace/projects/tritonbench/tritonbench/operators/gdpa/gdpa.py":1165:19)
#loc25 = loc("/workspace/projects/tritonbench/tritonbench/operators/gdpa/gdpa.py":1177:38)
#loc26 = loc("/workspace/projects/tritonbench/tritonbench/operators/gdpa/gdpa.py":1177:26)
#loc27 = loc("/workspace/projects/tritonbench/tritonbench/operators/gdpa/gdpa.py":1178:44)
#loc28 = loc("/workspace/projects/tritonbench/tritonbench/operators/gdpa/gdpa.py":1178:24)
#loc29 = loc("/workspace/projects/tritonbench/tritonbench/operators/gdpa/gdpa.py":1180:23)
#loc30 = loc("/workspace/projects/tritonbench/tritonbench/operators/gdpa/gdpa.py":1186:20)
#loc31 = loc("/workspace/projects/tritonbench/tritonbench/operators/gdpa/gdpa.py":1190:26)
#loc32 = loc("/workspace/projects/tritonbench/tritonbench/operators/gdpa/gdpa.py":1291:18)
#loc33 = loc("/workspace/projects/tritonbench/tritonbench/operators/gdpa/gdpa.py":1291:37)
#loc34 = loc("/workspace/projects/tritonbench/tritonbench/operators/gdpa/gdpa.py":1291:26)
#loc35 = loc("/workspace/projects/tritonbench/tritonbench/operators/gdpa/gdpa.py":1291:7)
#loc36 = loc("/workspace/projects/tritonbench/tritonbench/operators/gdpa/gdpa.py":1292:40)
#loc37 = loc("/workspace/projects/tritonbench/tritonbench/operators/gdpa/gdpa.py":1292:26)
#loc38 = loc("/workspace/projects/tritonbench/tritonbench/operators/gdpa/gdpa.py":1294:26)
#loc39 = loc("/workspace/projects/tritonbench/tritonbench/operators/gdpa/gdpa.py":1295:24)
#loc40 = loc("/workspace/projects/tritonbench/tritonbench/operators/gdpa/gdpa.py":1295:46)
#loc41 = loc("/workspace/projects/tritonbench/tritonbench/operators/gdpa/gdpa.py":1295:36)
#loc42 = loc("/workspace/projects/tritonbench/tritonbench/operators/gdpa/gdpa.py":1296:26)
#loc43 = loc("/workspace/projects/tritonbench/tritonbench/operators/gdpa/gdpa.py":1296:48)
#loc44 = loc("/workspace/projects/tritonbench/tritonbench/operators/gdpa/gdpa.py":1296:38)
#loc45 = loc("/workspace/projects/tritonbench/tritonbench/operators/gdpa/gdpa.py":1297:25)
#loc46 = loc("/workspace/projects/tritonbench/tritonbench/operators/gdpa/gdpa.py":1297:48)
#loc47 = loc("/workspace/projects/tritonbench/tritonbench/operators/gdpa/gdpa.py":1297:38)
#loc48 = loc("/workspace/projects/tritonbench/tritonbench/operators/gdpa/gdpa.py":1300:13)
#loc49 = loc("/workspace/projects/tritonbench/tritonbench/operators/gdpa/gdpa.py":1301:13)
#loc50 = loc("/workspace/projects/tritonbench/tritonbench/operators/gdpa/gdpa.py":1302:13)
#loc51 = loc("/workspace/projects/tritonbench/tritonbench/operators/gdpa/gdpa.py":1303:14)
#loc52 = loc("/workspace/projects/tritonbench/tritonbench/operators/gdpa/gdpa.py":1304:14)
#loc53 = loc("/workspace/projects/tritonbench/tritonbench/operators/gdpa/gdpa.py":1305:14)
#loc54 = loc("/workspace/projects/tritonbench/tritonbench/operators/gdpa/gdpa.py":1306:14)
#loc55 = loc("/workspace/projects/tritonbench/tritonbench/operators/gdpa/gdpa.py":1309:17)
#loc56 = loc("/workspace/projects/tritonbench/tritonbench/operators/gdpa/gdpa.py":1309:7)
#loc57 = loc("/workspace/projects/tritonbench/tritonbench/operators/gdpa/gdpa.py":1310:40)
#loc58 = loc("/workspace/projects/tritonbench/tritonbench/operators/gdpa/gdpa.py":1310:27)
#loc59 = loc("/workspace/projects/tritonbench/tritonbench/operators/gdpa/gdpa.py":1311:24)
#loc60 = loc("/workspace/projects/tritonbench/tritonbench/operators/gdpa/gdpa.py":1311:35)
#loc61 = loc("/workspace/projects/tritonbench/tritonbench/operators/gdpa/gdpa.py":1311:55)
#loc62 = loc("/workspace/projects/tritonbench/tritonbench/operators/gdpa/gdpa.py":1311:66)
#loc63 = loc("/workspace/projects/tritonbench/tritonbench/operators/gdpa/gdpa.py":1311:48)
#loc64 = loc("/workspace/projects/tritonbench/tritonbench/operators/gdpa/gdpa.py":1334:38)
#loc65 = loc("/workspace/projects/tritonbench/tritonbench/operators/gdpa/gdpa.py":1334:20)
#loc66 = loc("/workspace/projects/tritonbench/tritonbench/operators/gdpa/gdpa.py":1334:50)
#loc67 = loc("/workspace/projects/tritonbench/tritonbench/operators/gdpa/gdpa.py":1334:16)
#loc68 = loc("/workspace/projects/tritonbench/tritonbench/operators/gdpa/gdpa.py":1338:20)
#loc69 = loc("/workspace/projects/tritonbench/tritonbench/operators/gdpa/gdpa.py":1338:50)
#loc70 = loc("/workspace/projects/tritonbench/tritonbench/operators/gdpa/gdpa.py":1338:16)
#loc71 = loc("/workspace/projects/triton-openai/python/triton/language/standard.py":41:22)
#loc72 = loc("/workspace/projects/tritonbench/tritonbench/operators/gdpa/gdpa.py":1343:52)
#loc73 = loc("/workspace/projects/triton-openai/python/triton/language/standard.py":41:28)
#loc74 = loc("/workspace/projects/tritonbench/tritonbench/operators/gdpa/gdpa.py":766:36)
#loc75 = loc("/workspace/projects/tritonbench/tritonbench/operators/gdpa/gdpa.py":1384:12)
#loc76 = loc("/workspace/projects/tritonbench/tritonbench/operators/gdpa/gdpa.py":777:29)
#loc77 = loc("/workspace/projects/tritonbench/tritonbench/operators/gdpa/gdpa.py":777:40)
#loc78 = loc("/workspace/projects/tritonbench/tritonbench/operators/gdpa/gdpa.py":777:22)
#loc79 = loc("/workspace/projects/tritonbench/tritonbench/operators/gdpa/gdpa.py":777:59)
#loc80 = loc("/workspace/projects/tritonbench/tritonbench/operators/gdpa/gdpa.py":777:52)
#loc81 = loc("/workspace/projects/tritonbench/tritonbench/operators/gdpa/gdpa.py":778:30)
#loc82 = loc("/workspace/projects/tritonbench/tritonbench/operators/gdpa/gdpa.py":778:41)
#loc83 = loc("/workspace/projects/tritonbench/tritonbench/operators/gdpa/gdpa.py":778:23)
#loc84 = loc("/workspace/projects/tritonbench/tritonbench/operators/gdpa/gdpa.py":778:54)
#loc85 = loc("/workspace/projects/tritonbench/tritonbench/operators/gdpa/gdpa.py":788:35)
#loc86 = loc("/workspace/projects/tritonbench/tritonbench/operators/gdpa/gdpa.py":788:66)
#loc87 = loc("/workspace/projects/tritonbench/tritonbench/operators/gdpa/gdpa.py":788:48)
#loc88 = loc("/workspace/projects/tritonbench/tritonbench/operators/gdpa/gdpa.py":807:35)
#loc89 = loc("/workspace/projects/tritonbench/tritonbench/operators/gdpa/gdpa.py":807:44)
#loc90 = loc("/workspace/projects/tritonbench/tritonbench/operators/gdpa/gdpa.py":840:15)
#loc91 = loc("/workspace/projects/tritonbench/tritonbench/operators/gdpa/gdpa.py":892:32)
#loc92 = loc("/workspace/projects/tritonbench/tritonbench/operators/gdpa/gdpa.py":892:23)
#loc93 = loc("/workspace/projects/tritonbench/tritonbench/operators/gdpa/gdpa.py":893:32)
#loc94 = loc("/workspace/projects/tritonbench/tritonbench/operators/gdpa/gdpa.py":893:23)
#loc95 = loc("/workspace/projects/tritonbench/tritonbench/operators/gdpa/gdpa.py":786:46)
#loc96 = loc("/workspace/projects/tritonbench/tritonbench/operators/gdpa/gdpa.py":787:26)
#loc97 = loc("/workspace/projects/tritonbench/tritonbench/operators/gdpa/gdpa.py":788:55)
#loc98 = loc("/workspace/projects/tritonbench/tritonbench/operators/gdpa/gdpa.py":801:25)
#loc99 = loc("/workspace/projects/tritonbench/tritonbench/operators/gdpa/gdpa.py":804:24)
#loc100 = loc("/workspace/projects/tritonbench/tritonbench/operators/gdpa/gdpa.py":807:24)
#loc101 = loc("/workspace/projects/tritonbench/tritonbench/operators/gdpa/gdpa.py":817:25)
#loc102 = loc("/workspace/projects/tritonbench/tritonbench/operators/gdpa/gdpa.py":819:33)
#loc103 = loc("/workspace/projects/tritonbench/tritonbench/operators/gdpa/gdpa.py":819:24)
#loc104 = loc("/workspace/projects/tritonbench/tritonbench/operators/gdpa/gdpa.py":835:55)
#loc105 = loc("/workspace/projects/tritonbench/tritonbench/operators/gdpa/gdpa.py":835:76)
#loc106 = loc("/workspace/projects/tritonbench/tritonbench/operators/gdpa/gdpa.py":835:81)
#loc107 = loc("/workspace/projects/tritonbench/tritonbench/operators/gdpa/gdpa.py":835:65)
#loc108 = loc("/workspace/projects/tritonbench/tritonbench/operators/gdpa/gdpa.py":835:61)
#loc109 = loc("/workspace/projects/tritonbench/tritonbench/operators/gdpa/math.py":67:30)
#loc110 = loc("/workspace/projects/tritonbench/tritonbench/operators/gdpa/math.py":86:16)
#loc111 = loc("/workspace/projects/tritonbench/tritonbench/operators/gdpa/gdpa.py":835:40)
#loc112 = loc("/workspace/projects/triton-openai/python/triton/language/standard.py":48:30)
#loc113 = loc("/workspace/projects/tritonbench/tritonbench/operators/gdpa/math.py":67:26)
#loc114 = loc("/workspace/projects/triton-openai/python/triton/language/standard.py":48:29)
#loc115 = loc("/workspace/projects/triton-openai/python/triton/language/standard.py":48:20)
#loc116 = loc("/workspace/projects/triton-openai/python/triton/language/standard.py":48:16)
#loc117 = loc("/workspace/projects/tritonbench/tritonbench/operators/gdpa/math.py":67:15)
#loc118 = loc("/workspace/projects/tritonbench/tritonbench/operators/gdpa/math.py":67:35)
#loc119 = loc("/workspace/projects/tritonbench/tritonbench/operators/gdpa/gdpa.py":836:24)
#loc120 = loc("/workspace/projects/tritonbench/tritonbench/operators/gdpa/gdpa.py":836:34)
#loc121 = loc("/workspace/projects/tritonbench/tritonbench/operators/gdpa/gdpa.py":836:30)
#loc122 = loc("/workspace/projects/tritonbench/tritonbench/operators/gdpa/gdpa.py":841:21)
#loc123 = loc("/workspace/projects/tritonbench/tritonbench/operators/gdpa/gdpa.py":842:26)
#loc124 = loc("/workspace/projects/tritonbench/tritonbench/operators/gdpa/gdpa.py":854:34)
#loc125 = loc("/workspace/projects/tritonbench/tritonbench/operators/gdpa/gdpa.py":854:23)
#loc126 = loc("/workspace/projects/tritonbench/tritonbench/operators/gdpa/gdpa.py":854:19)
#loc127 = loc("/workspace/projects/tritonbench/tritonbench/operators/gdpa/gdpa.py":855:49)
#loc128 = loc("/workspace/projects/tritonbench/tritonbench/operators/gdpa/gdpa.py":855:54)
#loc129 = loc("/workspace/projects/tritonbench/tritonbench/operators/gdpa/gdpa.py":855:34)
#loc130 = loc("/workspace/projects/tritonbench/tritonbench/operators/gdpa/gdpa.py":855:19)
#loc131 = loc("/workspace/projects/tritonbench/tritonbench/operators/gdpa/gdpa.py":856:23)
#loc132 = loc("/workspace/projects/tritonbench/tritonbench/operators/gdpa/gdpa.py":856:16)
#loc133 = loc("/workspace/projects/tritonbench/tritonbench/operators/gdpa/gdpa.py":859:14)
#loc134 = loc("/workspace/projects/tritonbench/tritonbench/operators/gdpa/gdpa.py":869:19)
#loc135 = loc("/workspace/projects/tritonbench/tritonbench/operators/gdpa/gdpa.py":870:21)
#loc136 = loc("/workspace/projects/tritonbench/tritonbench/operators/gdpa/gdpa.py":871:35)
#loc137 = loc("/workspace/projects/tritonbench/tritonbench/operators/gdpa/gdpa.py":871:26)
#loc138 = loc("/workspace/projects/tritonbench/tritonbench/operators/gdpa/gdpa.py":890:18)
#loc139 = loc("/workspace/projects/tritonbench/tritonbench/operators/gdpa/gdpa.py":895:8)
#loc140 = loc("/workspace/projects/tritonbench/tritonbench/operators/gdpa/gdpa.py":1395:23)
#loc141 = loc("/workspace/projects/tritonbench/tritonbench/operators/gdpa/gdpa.py":1395:53)
#loc142 = loc("/workspace/projects/tritonbench/tritonbench/operators/gdpa/gdpa.py":1408:34)
#loc143 = loc("/workspace/projects/tritonbench/tritonbench/operators/gdpa/gdpa.py":1411:23)
#loc144 = loc("/workspace/projects/tritonbench/tritonbench/operators/gdpa/gdpa.py":1411:53)
#loc145 = loc("/workspace/projects/tritonbench/tritonbench/operators/gdpa/gdpa.py":1424:34)
#loc146 = loc("/workspace/projects/tritonbench/tritonbench/operators/gdpa/gdpa.py":1429:21)
#loc147 = loc("/workspace/projects/tritonbench/tritonbench/operators/gdpa/gdpa.py":1429:11)
#loc148 = loc("/workspace/projects/tritonbench/tritonbench/operators/gdpa/gdpa.py":1431:44)
#loc149 = loc("/workspace/projects/tritonbench/tritonbench/operators/gdpa/gdpa.py":1431:31)
#loc150 = loc("/workspace/projects/tritonbench/tritonbench/operators/gdpa/gdpa.py":1433:28)
#loc151 = loc("/workspace/projects/tritonbench/tritonbench/operators/gdpa/gdpa.py":1433:39)
#loc152 = loc("/workspace/projects/tritonbench/tritonbench/operators/gdpa/gdpa.py":1433:59)
#loc153 = loc("/workspace/projects/tritonbench/tritonbench/operators/gdpa/gdpa.py":1433:70)
#loc154 = loc("/workspace/projects/tritonbench/tritonbench/operators/gdpa/gdpa.py":1433:52)
#loc155 = loc("/workspace/projects/tritonbench/tritonbench/operators/gdpa/gdpa.py":1450:42)
#loc156 = loc("/workspace/projects/tritonbench/tritonbench/operators/gdpa/gdpa.py":1450:24)
#loc157 = loc("/workspace/projects/tritonbench/tritonbench/operators/gdpa/gdpa.py":1450:54)
#loc158 = loc("/workspace/projects/tritonbench/tritonbench/operators/gdpa/gdpa.py":1450:20)
#loc159 = loc("/workspace/projects/tritonbench/tritonbench/operators/gdpa/gdpa.py":1454:43)
#loc160 = loc("/workspace/projects/tritonbench/tritonbench/operators/gdpa/gdpa.py":1454:25)
#loc161 = loc("/workspace/projects/tritonbench/tritonbench/operators/gdpa/gdpa.py":1454:56)
#loc162 = loc("/workspace/projects/tritonbench/tritonbench/operators/gdpa/gdpa.py":1454:20)
#loc163 = loc("/workspace/projects/tritonbench/tritonbench/operators/gdpa/gdpa.py":1460:39)
#loc164 = loc("/workspace/projects/tritonbench/tritonbench/operators/gdpa/gdpa.py":939:36)
#loc165 = loc("/workspace/projects/tritonbench/tritonbench/operators/gdpa/gdpa.py":1496:16)
#loc166 = loc("/workspace/projects/tritonbench/tritonbench/operators/gdpa/gdpa.py":943:29)
#loc167 = loc("/workspace/projects/tritonbench/tritonbench/operators/gdpa/gdpa.py":943:40)
#loc168 = loc("/workspace/projects/tritonbench/tritonbench/operators/gdpa/gdpa.py":943:22)
#loc169 = loc("/workspace/projects/tritonbench/tritonbench/operators/gdpa/gdpa.py":943:59)
#loc170 = loc("/workspace/projects/tritonbench/tritonbench/operators/gdpa/gdpa.py":943:52)
#loc171 = loc("/workspace/projects/tritonbench/tritonbench/operators/gdpa/gdpa.py":944:22)
#loc172 = loc("/workspace/projects/tritonbench/tritonbench/operators/gdpa/gdpa.py":944:52)
#loc173 = loc("/workspace/projects/tritonbench/tritonbench/operators/gdpa/gdpa.py":952:35)
#loc174 = loc("/workspace/projects/tritonbench/tritonbench/operators/gdpa/gdpa.py":952:66)
#loc175 = loc("/workspace/projects/tritonbench/tritonbench/operators/gdpa/gdpa.py":952:48)
#loc176 = loc("/workspace/projects/tritonbench/tritonbench/operators/gdpa/gdpa.py":984:13)
#loc177 = loc("/workspace/projects/tritonbench/tritonbench/operators/gdpa/gdpa.py":1005:32)
#loc178 = loc("/workspace/projects/tritonbench/tritonbench/operators/gdpa/gdpa.py":1005:23)
#loc179 = loc("/workspace/projects/tritonbench/tritonbench/operators/gdpa/gdpa.py":950:46)
#loc180 = loc("/workspace/projects/tritonbench/tritonbench/operators/gdpa/gdpa.py":951:26)
#loc181 = loc("/workspace/projects/tritonbench/tritonbench/operators/gdpa/gdpa.py":952:55)
#loc182 = loc("/workspace/projects/tritonbench/tritonbench/operators/gdpa/gdpa.py":971:25)
#loc183 = loc("/workspace/projects/tritonbench/tritonbench/operators/gdpa/gdpa.py":972:25)
#loc184 = loc("/workspace/projects/tritonbench/tritonbench/operators/gdpa/gdpa.py":974:23)
#loc185 = loc("/workspace/projects/tritonbench/tritonbench/operators/gdpa/math.py":112:47)
#loc186 = loc("/workspace/projects/tritonbench/tritonbench/operators/gdpa/gdpa.py":981:31)
#loc187 = loc("/workspace/projects/tritonbench/tritonbench/operators/gdpa/math.py":112:69)
#loc188 = loc("/workspace/projects/tritonbench/tritonbench/operators/gdpa/math.py":112:73)
#loc189 = loc("/workspace/projects/tritonbench/tritonbench/operators/gdpa/math.py":112:58)
#loc190 = loc("/workspace/projects/tritonbench/tritonbench/operators/gdpa/math.py":112:52)
#loc191 = loc("/workspace/projects/tritonbench/tritonbench/operators/gdpa/math.py":112:32)
#loc192 = loc("/workspace/projects/tritonbench/tritonbench/operators/gdpa/math.py":113:17)
#loc193 = loc("/workspace/projects/tritonbench/tritonbench/operators/gdpa/math.py":114:24)
#loc194 = loc("/workspace/projects/tritonbench/tritonbench/operators/gdpa/math.py":114:13)
#loc195 = loc("/workspace/projects/tritonbench/tritonbench/operators/gdpa/math.py":114:67)
#loc196 = loc("/workspace/projects/tritonbench/tritonbench/operators/gdpa/math.py":114:71)
#loc197 = loc("/workspace/projects/tritonbench/tritonbench/operators/gdpa/math.py":114:52)
#loc198 = loc("/workspace/projects/tritonbench/tritonbench/operators/gdpa/math.py":114:37)
#loc199 = loc("/workspace/projects/tritonbench/tritonbench/operators/gdpa/math.py":114:8)
#loc200 = loc("/workspace/projects/tritonbench/tritonbench/operators/gdpa/math.py":115:19)
#loc201 = loc("/workspace/projects/tritonbench/tritonbench/operators/gdpa/math.py":115:15)
#loc202 = loc("/workspace/projects/tritonbench/tritonbench/operators/gdpa/math.py":115:8)
#loc203 = loc("/workspace/projects/tritonbench/tritonbench/operators/gdpa/gdpa.py":996:24)
#loc204 = loc("/workspace/projects/tritonbench/tritonbench/operators/gdpa/gdpa.py":997:17)
#loc205 = loc("/workspace/projects/tritonbench/tritonbench/operators/gdpa/gdpa.py":998:19)
#loc206 = loc("/workspace/projects/tritonbench/tritonbench/operators/gdpa/gdpa.py":1001:34)
#loc207 = loc("/workspace/projects/tritonbench/tritonbench/operators/gdpa/gdpa.py":1001:25)
#loc208 = loc("/workspace/projects/tritonbench/tritonbench/operators/gdpa/gdpa.py":1003:18)
#loc209 = loc("/workspace/projects/tritonbench/tritonbench/operators/gdpa/gdpa.py":1006:23)
#loc210 = loc("/workspace/projects/tritonbench/tritonbench/operators/gdpa/gdpa.py":1004:8)
#loc211 = loc("/workspace/projects/tritonbench/tritonbench/operators/gdpa/gdpa.py":1505:27)
#loc212 = loc("/workspace/projects/tritonbench/tritonbench/operators/gdpa/gdpa.py":1505:57)
#loc213 = loc("/workspace/projects/tritonbench/tritonbench/operators/gdpa/gdpa.py":1520:38)
#loc214 = loc("/workspace/projects/tritonbench/tritonbench/operators/gdpa/gdpa.py":1598:4)
#loc236 = loc(callsite(#loc1 at #loc2))
#loc237 = loc("off_z"(#loc16))
#loc238 = loc("off_seq_h"(#loc17))
#loc239 = loc("off_h"(#loc18))
#loc240 = loc("pid"(#loc19))
#loc241 = loc("begin_q"(#loc20))
#loc242 = loc("begin_q"(#loc21))
#loc243 = loc("end_q"(#loc22))
#loc244 = loc("end_q"(#loc23))
#loc245 = loc("qlen"(#loc24))
#loc246 = loc("begin_k"(#loc25))
#loc247 = loc("begin_k"(#loc26))
#loc248 = loc("end_k"(#loc27))
#loc249 = loc("end_k"(#loc28))
#loc250 = loc("klen"(#loc29))
#loc251 = loc("start_n"(#loc30))
#loc252 = loc("offs_k"(#loc31))
#loc253 = loc(callsite(#loc32 at #loc2))
#loc254 = loc(callsite(#loc33 at #loc2))
#loc255 = loc(callsite(#loc34 at #loc2))
#loc256 = loc(callsite(#loc35 at #loc2))
#loc257 = loc("begin_o"(#loc36))
#loc258 = loc("begin_o"(#loc37))
#loc259 = loc("off_h2"(#loc38))
#loc260 = loc("qadj"(#loc39))
#loc261 = loc("qadj"(#loc40))
#loc262 = loc("qadj"(#loc41))
#loc263 = loc("kadj"(#loc42))
#loc264 = loc("kadj"(#loc43))
#loc265 = loc("kadj"(#loc44))
#loc266 = loc("doadj"(#loc45))
#loc267 = loc("doadj"(#loc46))
#loc268 = loc("doadj"(#loc47))
#loc269 = loc("Q"(#loc48))
#loc270 = loc("K"(#loc49))
#loc271 = loc("V"(#loc50))
#loc272 = loc("DO"(#loc51))
#loc273 = loc("DQ"(#loc52))
#loc274 = loc("DK"(#loc53))
#loc275 = loc("DV"(#loc54))
#loc276 = loc(callsite(#loc55 at #loc2))
#loc277 = loc(callsite(#loc56 at #loc2))
#loc278 = loc("offs_n"(#loc57))
#loc279 = loc("offs_n"(#loc58))
#loc280 = loc("kmask"(#loc59))
#loc281 = loc("kmask"(#loc60))
#loc282 = loc("kmask"(#loc61))
#loc283 = loc("kmask"(#loc62))
#loc284 = loc("kmask"(#loc63))
#loc285 = loc("k"(#loc64))
#loc286 = loc("k"(#loc65))
#loc287 = loc("k"(#loc66))
#loc288 = loc("k"(#loc67))
#loc289 = loc("v"(#loc68))
#loc290 = loc("v"(#loc69))
#loc291 = loc("v"(#loc70))
#loc292 = loc("num_steps"(#loc72))
#loc293 = loc("offs_m"(#loc74))
#loc294 = loc(callsite(#loc75 at #loc2))
#loc295 = loc("qT_ptrs"(#loc76))
#loc296 = loc("qT_ptrs"(#loc77))
#loc297 = loc("qT_ptrs"(#loc78))
#loc298 = loc("qT_ptrs"(#loc79))
#loc299 = loc("qT_ptrs"(#loc80))
#loc300 = loc("do_ptrs"(#loc81))
#loc301 = loc("do_ptrs"(#loc82))
#loc302 = loc("do_ptrs"(#loc83))
#loc303 = loc("do_ptrs"(#loc84))
#loc304 = loc("qmask"(#loc85))
#loc305 = loc("qmask"(#loc86))
#loc306 = loc("qmask"(#loc87))
#loc307 = loc("omask"(#loc88))
#loc308 = loc("omask"(#loc89))
#loc309 = loc("ppT"(#loc90))
#loc310 = loc("qT_ptrs"(#loc91))
#loc311 = loc("qT_ptrs"(#loc92))
#loc312 = loc("do_ptrs"(#loc93))
#loc313 = loc("do_ptrs"(#loc94))
#loc314 = loc("dk"(#loc95))
#loc315 = loc("offs_m"(#loc96))
#loc316 = loc("qmask"(#loc97))
#loc317 = loc("qT"(#loc98))
#loc318 = loc("qkT"(#loc99))
#loc319 = loc("omask"(#loc100))
#loc320 = loc("do"(#loc101))
#loc321 = loc("dpT"(#loc102))
#loc322 = loc("dpT"(#loc103))
#loc323 = loc("tanh_out"(#loc104))
#loc324 = loc("tanh_out"(#loc105))
#loc325 = loc("tanh_out"(#loc106))
#loc326 = loc("tanh_out"(#loc107))
#loc327 = loc("tanh_out"(#loc108))
#loc328 = loc("tanh_out"(#loc111))
#loc329 = loc("ppT"(#loc119))
#loc330 = loc("ppT"(#loc120))
#loc331 = loc("ppT"(#loc121))
#loc332 = loc("ppT"(#loc122))
#loc333 = loc("dv"(#loc123))
#loc334 = loc("pT"(#loc124))
#loc335 = loc("pT"(#loc125))
#loc336 = loc("pT"(#loc126))
#loc337 = loc("pT"(#loc127))
#loc338 = loc("pT"(#loc128))
#loc339 = loc("pT"(#loc129))
#loc340 = loc("pT"(#loc130))
#loc341 = loc("pT"(#loc131))
#loc342 = loc("pT"(#loc132))
#loc343 = loc("pT"(#loc133))
#loc344 = loc("dsT"(#loc134))
#loc345 = loc("dsT"(#loc135))
#loc346 = loc("dk"(#loc136))
#loc347 = loc("dk"(#loc137))
#loc348 = loc("curr_m"(#loc138))
#loc349 = loc("dv_ptrs"(#loc140))
#loc350 = loc("dv_ptrs"(#loc141))
#loc351 = loc(callsite(#loc142 at #loc2))
#loc352 = loc("dk_ptrs"(#loc143))
#loc353 = loc("dk_ptrs"(#loc144))
#loc354 = loc(callsite(#loc145 at #loc2))
#loc355 = loc(callsite(#loc146 at #loc2))
#loc356 = loc(callsite(#loc147 at #loc2))
#loc357 = loc("offs_m"(#loc148))
#loc358 = loc("offs_m"(#loc149))
#loc359 = loc("qmask"(#loc150))
#loc360 = loc("qmask"(#loc151))
#loc361 = loc("qmask"(#loc152))
#loc362 = loc("qmask"(#loc153))
#loc363 = loc("qmask"(#loc154))
#loc364 = loc("q"(#loc155))
#loc365 = loc("q"(#loc156))
#loc366 = loc("q"(#loc157))
#loc367 = loc("q"(#loc158))
#loc368 = loc("do"(#loc159))
#loc369 = loc("do"(#loc160))
#loc370 = loc("do"(#loc161))
#loc371 = loc("do"(#loc162))
#loc372 = loc("num_steps"(#loc163))
#loc373 = loc("offs_n"(#loc164))
#loc374 = loc("dq"(#loc165))
#loc375 = loc("kT_ptrs"(#loc166))
#loc376 = loc("kT_ptrs"(#loc167))
#loc377 = loc("kT_ptrs"(#loc168))
#loc378 = loc("kT_ptrs"(#loc169))
#loc379 = loc("kT_ptrs"(#loc170))
#loc380 = loc("vT_ptrs"(#loc171))
#loc381 = loc("vT_ptrs"(#loc172))
#loc382 = loc("kmask"(#loc173))
#loc383 = loc("kmask"(#loc174))
#loc384 = loc("kmask"(#loc175))
#loc385 = loc("p"(#loc176))
#loc386 = loc("kT_ptrs"(#loc177))
#loc387 = loc("kT_ptrs"(#loc178))
#loc388 = loc("dq"(#loc179))
#loc389 = loc("offs_n"(#loc180))
#loc390 = loc("kmask"(#loc181))
#loc391 = loc("kT"(#loc182))
#loc392 = loc("vT"(#loc183))
#loc393 = loc("qk"(#loc184))
#loc394 = loc("tanh_out"(#loc185))
#loc395 = loc("p"(#loc186))
#loc396 = loc("tanh_out"(#loc187))
#loc397 = loc("tanh_out"(#loc188))
#loc398 = loc("tanh_out"(#loc189))
#loc399 = loc("tanh_out"(#loc190))
#loc400 = loc("tanh_out"(#loc191))
#loc401 = loc("dp"(#loc203))
#loc402 = loc("ds"(#loc204))
#loc403 = loc("ds"(#loc205))
#loc404 = loc("dq"(#loc206))
#loc405 = loc("dq"(#loc207))
#loc406 = loc("curr_n"(#loc208))
#loc407 = loc("vT_ptrs"(#loc209))
#loc408 = loc("dq_ptrs"(#loc211))
#loc409 = loc("dq_ptrs"(#loc212))
#loc410 = loc(callsite(#loc213 at #loc2))
#loc411 = loc(callsite(#loc241 at #loc2))
#loc412 = loc(callsite(#loc242 at #loc2))
#loc413 = loc(callsite(#loc243 at #loc2))
#loc414 = loc(callsite(#loc244 at #loc2))
#loc415 = loc(callsite(#loc245 at #loc2))
#loc416 = loc(callsite(#loc246 at #loc2))
#loc417 = loc(callsite(#loc247 at #loc2))
#loc418 = loc(callsite(#loc248 at #loc2))
#loc419 = loc(callsite(#loc249 at #loc2))
#loc420 = loc(callsite(#loc250 at #loc2))
#loc421 = loc(callsite(#loc251 at #loc2))
#loc422 = loc(callsite(#loc252 at #loc2))
#loc423 = loc(callsite(#loc257 at #loc2))
#loc424 = loc(callsite(#loc258 at #loc2))
#loc425 = loc(callsite(#loc259 at #loc2))
#loc426 = loc(callsite(#loc260 at #loc2))
#loc427 = loc(callsite(#loc261 at #loc2))
#loc428 = loc(callsite(#loc262 at #loc2))
#loc429 = loc(callsite(#loc263 at #loc2))
#loc430 = loc(callsite(#loc264 at #loc2))
#loc431 = loc(callsite(#loc265 at #loc2))
#loc432 = loc(callsite(#loc266 at #loc2))
#loc433 = loc(callsite(#loc267 at #loc2))
#loc434 = loc(callsite(#loc268 at #loc2))
#loc435 = loc("Q"(#loc269))
#loc436 = loc("K"(#loc270))
#loc437 = loc("V"(#loc271))
#loc438 = loc("DO"(#loc272))
#loc439 = loc("DQ"(#loc273))
#loc440 = loc("DK"(#loc274))
#loc441 = loc("DV"(#loc275))
#loc442 = loc(callsite(#loc278 at #loc2))
#loc443 = loc(callsite(#loc279 at #loc2))
#loc444 = loc(callsite(#loc280 at #loc2))
#loc445 = loc(callsite(#loc281 at #loc2))
#loc446 = loc(callsite(#loc282 at #loc2))
#loc447 = loc(callsite(#loc283 at #loc2))
#loc448 = loc(callsite(#loc284 at #loc2))
#loc449 = loc(callsite(#loc285 at #loc2))
#loc450 = loc(callsite(#loc286 at #loc2))
#loc451 = loc(callsite(#loc287 at #loc2))
#loc452 = loc(callsite(#loc288 at #loc2))
#loc453 = loc(callsite(#loc289 at #loc2))
#loc454 = loc(callsite(#loc290 at #loc2))
#loc455 = loc(callsite(#loc291 at #loc2))
#loc456 = loc(callsite(#loc292 at #loc2))
#loc457 = loc(callsite(#loc293 at #loc294))
#loc458 = loc(callsite(#loc295 at #loc294))
#loc459 = loc(callsite(#loc296 at #loc294))
#loc460 = loc(callsite(#loc297 at #loc294))
#loc461 = loc(callsite(#loc298 at #loc294))
#loc462 = loc(callsite(#loc299 at #loc294))
#loc463 = loc(callsite(#loc300 at #loc294))
#loc464 = loc(callsite(#loc301 at #loc294))
#loc465 = loc(callsite(#loc302 at #loc294))
#loc466 = loc(callsite(#loc303 at #loc294))
#loc467 = loc(callsite(#loc304 at #loc294))
#loc468 = loc(callsite(#loc305 at #loc294))
#loc469 = loc(callsite(#loc306 at #loc294))
#loc470 = loc(callsite(#loc307 at #loc294))
#loc471 = loc(callsite(#loc308 at #loc294))
#loc472 = loc(callsite(#loc309 at #loc294))
#loc473 = loc(callsite(#loc310 at #loc294))
#loc474 = loc(callsite(#loc311 at #loc294))
#loc475 = loc(callsite(#loc312 at #loc294))
#loc476 = loc(callsite(#loc313 at #loc294))
#loc477 = loc("dv"(#loc314))
#loc478 = loc(callsite(#loc315 at #loc294))
#loc479 = loc(callsite(#loc316 at #loc294))
#loc480 = loc(callsite(#loc317 at #loc294))
#loc481 = loc(callsite(#loc318 at #loc294))
#loc482 = loc(callsite(#loc319 at #loc294))
#loc483 = loc(callsite(#loc320 at #loc294))
#loc484 = loc(callsite(#loc321 at #loc294))
#loc485 = loc(callsite(#loc322 at #loc294))
#loc486 = loc(callsite(#loc323 at #loc294))
#loc487 = loc(callsite(#loc324 at #loc294))
#loc488 = loc(callsite(#loc325 at #loc294))
#loc489 = loc(callsite(#loc326 at #loc294))
#loc490 = loc(callsite(#loc327 at #loc294))
#loc491 = loc(callsite(#loc328 at #loc294))
#loc492 = loc(callsite(#loc329 at #loc294))
#loc493 = loc(callsite(#loc330 at #loc294))
#loc494 = loc(callsite(#loc331 at #loc294))
#loc495 = loc(callsite(#loc332 at #loc294))
#loc496 = loc(callsite(#loc333 at #loc294))
#loc497 = loc(callsite(#loc334 at #loc294))
#loc498 = loc(callsite(#loc335 at #loc294))
#loc499 = loc(callsite(#loc336 at #loc294))
#loc500 = loc(callsite(#loc337 at #loc294))
#loc501 = loc(callsite(#loc338 at #loc294))
#loc502 = loc(callsite(#loc339 at #loc294))
#loc503 = loc(callsite(#loc340 at #loc294))
#loc504 = loc(callsite(#loc341 at #loc294))
#loc505 = loc(callsite(#loc342 at #loc294))
#loc506 = loc(callsite(#loc343 at #loc294))
#loc507 = loc(callsite(#loc344 at #loc294))
#loc508 = loc(callsite(#loc345 at #loc294))
#loc509 = loc(callsite(#loc346 at #loc294))
#loc510 = loc(callsite(#loc347 at #loc294))
#loc511 = loc(callsite(#loc348 at #loc294))
#loc512 = loc(callsite(#loc139 at #loc294))
#loc513 = loc(callsite(#loc349 at #loc2))
#loc514 = loc(callsite(#loc350 at #loc2))
#loc515 = loc(callsite(#loc352 at #loc2))
#loc516 = loc(callsite(#loc353 at #loc2))
#loc517 = loc(callsite(#loc357 at #loc2))
#loc518 = loc(callsite(#loc358 at #loc2))
#loc519 = loc(callsite(#loc359 at #loc2))
#loc520 = loc(callsite(#loc360 at #loc2))
#loc521 = loc(callsite(#loc361 at #loc2))
#loc522 = loc(callsite(#loc362 at #loc2))
#loc523 = loc(callsite(#loc363 at #loc2))
#loc524 = loc(callsite(#loc364 at #loc2))
#loc525 = loc(callsite(#loc365 at #loc2))
#loc526 = loc(callsite(#loc366 at #loc2))
#loc527 = loc(callsite(#loc367 at #loc2))
#loc528 = loc(callsite(#loc368 at #loc2))
#loc529 = loc(callsite(#loc369 at #loc2))
#loc530 = loc(callsite(#loc370 at #loc2))
#loc531 = loc(callsite(#loc371 at #loc2))
#loc532 = loc(callsite(#loc372 at #loc2))
#loc533 = loc(callsite(#loc374 at #loc2))
#loc534 = loc("offs_n"(#loc388))
#loc535 = loc(callsite(#loc408 at #loc2))
#loc536 = loc(callsite(#loc409 at #loc2))
#loc537 = loc(callsite(#loc435 at #loc2))
#loc538 = loc(callsite(#loc436 at #loc2))
#loc539 = loc(callsite(#loc437 at #loc2))
#loc540 = loc(callsite(#loc438 at #loc2))
#loc541 = loc(callsite(#loc439 at #loc2))
#loc542 = loc(callsite(#loc440 at #loc2))
#loc543 = loc(callsite(#loc441 at #loc2))
#loc544 = loc(callsite(#loc71 at #loc456))
#loc545 = loc(callsite(#loc73 at #loc456))
#loc546 = loc("offs_m"(#loc477))
#loc547 = loc(callsite(#loc110 at #loc491))
#loc548 = loc(callsite(#loc71 at #loc532))
#loc549 = loc(callsite(#loc73 at #loc532))
#loc550 = loc(callsite(#loc373 at #loc533))
#loc551 = loc(callsite(#loc375 at #loc533))
#loc552 = loc(callsite(#loc376 at #loc533))
#loc553 = loc(callsite(#loc377 at #loc533))
#loc554 = loc(callsite(#loc378 at #loc533))
#loc555 = loc(callsite(#loc379 at #loc533))
#loc556 = loc(callsite(#loc380 at #loc533))
#loc557 = loc(callsite(#loc381 at #loc533))
#loc558 = loc(callsite(#loc382 at #loc533))
#loc559 = loc(callsite(#loc383 at #loc533))
#loc560 = loc(callsite(#loc384 at #loc533))
#loc561 = loc(callsite(#loc385 at #loc533))
#loc562 = loc(callsite(#loc386 at #loc533))
#loc563 = loc(callsite(#loc387 at #loc533))
#loc564 = loc("kT_ptrs"(#loc534))
#loc565 = loc(callsite(#loc389 at #loc533))
#loc566 = loc(callsite(#loc390 at #loc533))
#loc567 = loc(callsite(#loc391 at #loc533))
#loc568 = loc(callsite(#loc392 at #loc533))
#loc569 = loc(callsite(#loc393 at #loc533))
#loc570 = loc(callsite(#loc395 at #loc533))
#loc571 = loc(callsite(#loc401 at #loc533))
#loc572 = loc(callsite(#loc402 at #loc533))
#loc573 = loc(callsite(#loc403 at #loc533))
#loc574 = loc(callsite(#loc404 at #loc533))
#loc575 = loc(callsite(#loc405 at #loc533))
#loc576 = loc(callsite(#loc406 at #loc533))
#loc577 = loc(callsite(#loc407 at #loc533))
#loc578 = loc(callsite(#loc210 at #loc533))
#loc579 = loc("qT_ptrs"(#loc546))
#loc580 = loc(callsite(#loc109 at #loc547))
#loc581 = loc(callsite(#loc113 at #loc547))
#loc582 = loc(callsite(#loc117 at #loc547))
#loc583 = loc(callsite(#loc118 at #loc547))
#loc584 = loc("vT_ptrs"(#loc564))
#loc585 = loc(callsite(#loc394 at #loc570))
#loc586 = loc(callsite(#loc396 at #loc570))
#loc587 = loc(callsite(#loc397 at #loc570))
#loc588 = loc(callsite(#loc398 at #loc570))
#loc589 = loc(callsite(#loc399 at #loc570))
#loc590 = loc(callsite(#loc400 at #loc570))
#loc591 = loc(callsite(#loc192 at #loc570))
#loc592 = loc(callsite(#loc193 at #loc570))
#loc593 = loc(callsite(#loc194 at #loc570))
#loc594 = loc(callsite(#loc195 at #loc570))
#loc595 = loc(callsite(#loc196 at #loc570))
#loc596 = loc(callsite(#loc197 at #loc570))
#loc597 = loc(callsite(#loc198 at #loc570))
#loc598 = loc(callsite(#loc199 at #loc570))
#loc599 = loc(callsite(#loc200 at #loc570))
#loc600 = loc(callsite(#loc201 at #loc570))
#loc601 = loc(callsite(#loc202 at #loc570))
#loc602 = loc("do_ptrs"(#loc579))
#loc603 = loc(callsite(#loc112 at #loc581))
#loc604 = loc(callsite(#loc114 at #loc581))
#loc605 = loc(callsite(#loc115 at #loc581))
#loc606 = loc(callsite(#loc116 at #loc581))
#loc607 = loc("curr_n"(#loc584))
#loc608 = loc(callsite(#loc110 at #loc590))
#loc609 = loc("curr_m"(#loc602))
#loc610 = loc(callsite(#loc607 at #loc533))
#loc611 = loc(callsite(#loc109 at #loc608))
#loc612 = loc(callsite(#loc113 at #loc608))
#loc613 = loc(callsite(#loc117 at #loc608))
#loc614 = loc(callsite(#loc118 at #loc608))
#loc615 = loc(callsite(#loc609 at #loc294))
#loc616 = loc(callsite(#loc112 at #loc612))
#loc617 = loc(callsite(#loc114 at #loc612))
#loc618 = loc(callsite(#loc115 at #loc612))
#loc619 = loc(callsite(#loc116 at #loc612))
